('save_interval', 20)
novel classes: ['airplane', 'ship']
('base_ids', [2, 3, 4, 5, 6, 7, 8, 9])
logging to backup/metayolov3_nwpu_300_200_novel0_neg1
('class_scale', 1)
layer     filters    size              input                output
    0 conv     32  3 x 3 / 1   512 x 512 x   3   ->   512 x 512 x  32
    1 conv     64  3 x 3 / 2   512 x 512 x  32   ->   256 x 256 x  64
    2 conv     32  1 x 1 / 1   256 x 256 x  64   ->   256 x 256 x  32
    3 conv     64  3 x 3 / 1   256 x 256 x  32   ->   256 x 256 x  64
    4 shortcut 1
    5 conv    128  3 x 3 / 2   256 x 256 x  64   ->   128 x 128 x 128
    6 conv     64  1 x 1 / 1   128 x 128 x 128   ->   128 x 128 x  64
    7 conv    128  3 x 3 / 1   128 x 128 x  64   ->   128 x 128 x 128
    8 shortcut 5
    9 conv     64  1 x 1 / 1   128 x 128 x 128   ->   128 x 128 x  64
   10 conv    128  3 x 3 / 1   128 x 128 x  64   ->   128 x 128 x 128
   11 shortcut 8
   12 conv    256  3 x 3 / 2   128 x 128 x 128   ->    64 x  64 x 256
   13 conv    128  1 x 1 / 1    64 x  64 x 256   ->    64 x  64 x 128
   14 conv    256  3 x 3 / 1    64 x  64 x 128   ->    64 x  64 x 256
   15 shortcut 12
   16 conv    128  1 x 1 / 1    64 x  64 x 256   ->    64 x  64 x 128
   17 conv    256  3 x 3 / 1    64 x  64 x 128   ->    64 x  64 x 256
   18 shortcut 15
   19 conv    128  1 x 1 / 1    64 x  64 x 256   ->    64 x  64 x 128
   20 conv    256  3 x 3 / 1    64 x  64 x 128   ->    64 x  64 x 256
   21 shortcut 18
   22 conv    128  1 x 1 / 1    64 x  64 x 256   ->    64 x  64 x 128
   23 conv    256  3 x 3 / 1    64 x  64 x 128   ->    64 x  64 x 256
   24 shortcut 21
   25 conv    128  1 x 1 / 1    64 x  64 x 256   ->    64 x  64 x 128
   26 conv    256  3 x 3 / 1    64 x  64 x 128   ->    64 x  64 x 256
   27 shortcut 24
   28 conv    128  1 x 1 / 1    64 x  64 x 256   ->    64 x  64 x 128
   29 conv    256  3 x 3 / 1    64 x  64 x 128   ->    64 x  64 x 256
   30 shortcut 27
   31 conv    128  1 x 1 / 1    64 x  64 x 256   ->    64 x  64 x 128
   32 conv    256  3 x 3 / 1    64 x  64 x 128   ->    64 x  64 x 256
   33 shortcut 30
   34 conv    128  1 x 1 / 1    64 x  64 x 256   ->    64 x  64 x 128
   35 conv    256  3 x 3 / 1    64 x  64 x 128   ->    64 x  64 x 256
   36 shortcut 33
   37 conv    512  3 x 3 / 2    64 x  64 x 256   ->    32 x  32 x 512
   38 conv    256  1 x 1 / 1    32 x  32 x 512   ->    32 x  32 x 256
   39 conv    512  3 x 3 / 1    32 x  32 x 256   ->    32 x  32 x 512
   40 shortcut 37
   41 conv    256  1 x 1 / 1    32 x  32 x 512   ->    32 x  32 x 256
   42 conv    512  3 x 3 / 1    32 x  32 x 256   ->    32 x  32 x 512
   43 shortcut 40
   44 conv    256  1 x 1 / 1    32 x  32 x 512   ->    32 x  32 x 256
   45 conv    512  3 x 3 / 1    32 x  32 x 256   ->    32 x  32 x 512
   46 shortcut 43
   47 conv    256  1 x 1 / 1    32 x  32 x 512   ->    32 x  32 x 256
   48 conv    512  3 x 3 / 1    32 x  32 x 256   ->    32 x  32 x 512
   49 shortcut 46
   50 conv    256  1 x 1 / 1    32 x  32 x 512   ->    32 x  32 x 256
   51 conv    512  3 x 3 / 1    32 x  32 x 256   ->    32 x  32 x 512
   52 shortcut 49
   53 conv    256  1 x 1 / 1    32 x  32 x 512   ->    32 x  32 x 256
   54 conv    512  3 x 3 / 1    32 x  32 x 256   ->    32 x  32 x 512
   55 shortcut 52
   56 conv    256  1 x 1 / 1    32 x  32 x 512   ->    32 x  32 x 256
   57 conv    512  3 x 3 / 1    32 x  32 x 256   ->    32 x  32 x 512
   58 shortcut 55
   59 conv    256  1 x 1 / 1    32 x  32 x 512   ->    32 x  32 x 256
   60 conv    512  3 x 3 / 1    32 x  32 x 256   ->    32 x  32 x 512
   61 shortcut 58
   62 conv   1024  3 x 3 / 2    32 x  32 x 512   ->    16 x  16 x1024
   63 conv    512  1 x 1 / 1    16 x  16 x1024   ->    16 x  16 x 512
   64 conv   1024  3 x 3 / 1    16 x  16 x 512   ->    16 x  16 x1024
   65 shortcut 62
   66 conv    512  1 x 1 / 1    16 x  16 x1024   ->    16 x  16 x 512
   67 conv   1024  3 x 3 / 1    16 x  16 x 512   ->    16 x  16 x1024
   68 shortcut 65
   69 conv    512  1 x 1 / 1    16 x  16 x1024   ->    16 x  16 x 512
   70 conv   1024  3 x 3 / 1    16 x  16 x 512   ->    16 x  16 x1024
   71 shortcut 68
   72 conv    512  1 x 1 / 1    16 x  16 x1024   ->    16 x  16 x 512
   73 conv   1024  3 x 3 / 1    16 x  16 x 512   ->    16 x  16 x1024
   74 shortcut 71
   75 conv    512  1 x 1 / 1    16 x  16 x1024   ->    16 x  16 x 512
   76 conv   1024  3 x 3 / 1    16 x  16 x 512   ->    16 x  16 x1024
   77 conv    512  1 x 1 / 1    16 x  16 x1024   ->    16 x  16 x 512
   78 max          5 x 5 / 1    16 x  16 x 512   ->    16 x  16 x 512
   79 route  77
   80 max          9 x 9 / 1    16 x  16 x 512   ->    16 x  16 x 512
   81 route  77
   82 max          13 x 13 / 1    16 x  16 x 512   ->    16 x  16 x 512
   84 conv    512  1 x 1 / 1    16 x  16 x 512   ->    16 x  16 x 512
   85 conv   1024  3 x 3 / 1    16 x  16 x 512   ->    16 x  16 x1024
   86 conv    512  1 x 1 / 1    16 x  16 x1024   ->    16 x  16 x 512
   87 conv   1024  3 x 3 / 1    16 x  16 x 512   ->    16 x  16 x1024
   88 dconv  1024  1 x 1 / 1    16 x  16 x1024   ->    16 x  16 x1024
   89 conv     18  1 x 1 / 1    16 x  16 x1024   ->    16 x  16 x  18
   90 route  86
   91 conv    256  1 x 1 / 1    16 x  16 x 512   ->    16 x  16 x 256
   92 up             2          16 x  16 x 256   ->    32 x  32 x 256
   93 route  92 61
   94 conv    256  1 x 1 / 1    32 x  32 x 768   ->    32 x  32 x 256
   95 conv    512  3 x 3 / 1    32 x  32 x 256   ->    32 x  32 x 512
   96 conv    256  1 x 1 / 1    32 x  32 x 512   ->    32 x  32 x 256
   97 conv    512  3 x 3 / 1    32 x  32 x 256   ->    32 x  32 x 512
   98 conv    256  1 x 1 / 1    32 x  32 x 512   ->    32 x  32 x 256
   99 conv    512  3 x 3 / 1    32 x  32 x 256   ->    32 x  32 x 512
  100 dconv   512  1 x 1 / 1    32 x  32 x 512   ->    32 x  32 x 512
  101 conv     18  1 x 1 / 1    32 x  32 x 512   ->    32 x  32 x  18
  102 route  98
  103 conv    128  1 x 1 / 1    32 x  32 x 256   ->    32 x  32 x 128
  104 up             2          32 x  32 x 128   ->    64 x  64 x 128
  105 route  104 36
  106 conv    128  1 x 1 / 1    64 x  64 x 384   ->    64 x  64 x 128
  107 conv    256  3 x 3 / 1    64 x  64 x 128   ->    64 x  64 x 256
  108 conv    128  1 x 1 / 1    64 x  64 x 256   ->    64 x  64 x 128
  109 conv    256  3 x 3 / 1    64 x  64 x 128   ->    64 x  64 x 256
  110 conv    128  1 x 1 / 1    64 x  64 x 256   ->    64 x  64 x 128
  111 conv    256  3 x 3 / 1    64 x  64 x 128   ->    64 x  64 x 256
  112 dconv   256  1 x 1 / 1    64 x  64 x 256   ->    64 x  64 x 256
  113 conv     18  1 x 1 / 1    64 x  64 x 256   ->    64 x  64 x  18
  114 detection
---------------------------------------------------------------------
layer     filters    size              input                output
    0 conv     32  3 x 3 / 1   512 x 512 x   4   ->   512 x 512 x  32
    1 max          2 x 2 / 2   512 x 512 x  32   ->   256 x 256 x  32
    2 conv     64  3 x 3 / 1   256 x 256 x  32   ->   256 x 256 x  64
    3 max          2 x 2 / 2   256 x 256 x  64   ->   128 x 128 x  64
    4 conv    128  3 x 3 / 1   128 x 128 x  64   ->   128 x 128 x 128
    5 max          2 x 2 / 2   128 x 128 x 128   ->    64 x  64 x 128
    6 conv    256  3 x 3 / 1    64 x  64 x 128   ->    64 x  64 x 256
    7 max          2 x 2 / 2    64 x  64 x 256   ->    32 x  32 x 256
    8 conv    256  3 x 3 / 1    32 x  32 x 256   ->    32 x  32 x 256
    9 glomax       32 x 32 / 1    32 x  32 x 256   ->     1 x   1 x 256
   10 route  7
   11 conv    512  3 x 3 / 1    32 x  32 x 256   ->    32 x  32 x 512
   12 max          2 x 2 / 2    32 x  32 x 512   ->    16 x  16 x 512
   13 conv    512  3 x 3 / 1    16 x  16 x 512   ->    16 x  16 x 512
   14 glomax       16 x 16 / 1    16 x  16 x 512   ->     1 x   1 x 512
   15 route  12
   16 conv   1024  3 x 3 / 1    16 x  16 x 512   ->    16 x  16 x1024
   17 max          2 x 2 / 2    16 x  16 x1024   ->     8 x   8 x1024
   18 conv   1024  3 x 3 / 1     8 x   8 x1024   ->     8 x   8 x1024
   19 glomax       8 x 8 / 1     8 x   8 x1024   ->     1 x   1 x1024
1 547 320800 3
10
===> Number of samples (before filtring): 547
===> Number of samples (after filtring): 547
('num classes: ', 8)
2022-05-13 16:27:10 epoch 0/500, processed 0 samples, lr 1.000000e-03
3: nGT 18, precision 0.000048, recall50 0.222222, recall75 0.055556, cls_acc 0.150943, loss: x 0.080637, y 0.099766, w 1.179458, h 0.936776, conf 75.881676, cls 2.074610, total 80.252922
…
